onnx/q_model_650.onnx (onnx, 562454 bytes, 9 tensors)

conv_layer1.weight f4 [32, 4, 10, 10]
000000 34 67 a6 3c fa 4e 4f bd a7 36 8f ba 7a fd 05 3d
       0.020312883 -0.050612427 -0.0010926322 0.032712437
000010 e3 e1 34 ba 23 11 5a 3d d3 80 d0 3c a1 2b 00 bd
       -0.0006900115 0.053239 0.025452053 -0.031291608
000020 3a 58 3d 3d 60 79 07 bd ee 57 47 bc 09 25 8f bc
       0.046226718 -0.033074737 -0.01216696 -0.017473714
000030 c8 26 b3 3b 46 a8 ca bb 69 34 f2 bc ff aa b1 3b
       0.0054672696 -0.0061846105 -0.029566007 0.0054219957
000040 83 a0 9d bc ec e1 88 bc 90 35 7e bb 54 e2 52 3c
       -0.019241577 -0.01670929 -0.003878925 0.012871344
000050 79 a9 d1 bc 0b b9 d0 bc fb b6 c2 bb 9f 4f 50 3c
       -0.025593506 -0.02547886 -0.005942223 0.012714296
000060 f1 32 62 3d 86 d7 f3 bc 4c d2 46 3d a4 be 43 3d
       0.055224363 -0.029765856 0.0485404 0.04778923
000070 08 ed 0e 3d f6 bd 37 bc 33 ad 34 bd f8 a6 ee bc
       0.03489402 -0.011214724 -0.04411049 -0.029132351
000080 ad 6a 13 bd 08 34 43 bd 1a 51 97 3c 27 8b e0 bb
       -0.035990406 -0.047657043 0.01847129 -0.0068525258
000090 ab 1b cf 3c 23 2c 48 3d 58 91 13 bc 07 14 2a 3c
       0.025281748 0.048870217 -0.009006821 0.010380751
0000a0 f2 f6 a3 3c 2f 35 f7 ba 8e 75 08 bd aa 57 b0 3b
       0.020015214 -0.0018860454 -0.033315234 0.005381544
0000b0 bf 15 c7 3b 4d 21 8c 3c 90 db 46 3d 36 5a 3e 3d
       0.0060755904 0.017105723 0.048549235 0.04647275
0000c0 b3 95 5f 3d 8a 09 1e bd 0d 1e 8d bd 92 b4 1f bd
       0.054586124 -0.038583316 -0.06890497 -0.038990565
0000d0 33 d0 27 bd 41 c0 c7 bc 4b 6a 34 3d dc 95 da ba
       -0.04097004 -0.024383666 0.04404668 -0.0016676742
0000e0 1c dd d3 bc 61 f7 cd bc 65 e9 55 3d f6 f2 23 bc
       -0.02586227 -0.025142374 0.052224535 -0.010006657
0000f0 8c 0f 63 bd 2e 8a 39 bd 6b 01 4a bd 00 40 f2 bc
       -0.05543475 -0.045297794 -0.04931776 -0.029571533
000100 72 e1 05 3d 45 4e cc bb 38 99 c3 bb 66 7a ab bc
       0.032685705 -0.0062349164 -0.005969193 -0.020932388
000110 24 8e 58 3d c6 1f f8 bb e5 73 6f bc 19 0f 6c bd
       0.05286993 -0.007572147 -0.014615034 -0.057631586
000120 a2 44 e5 3a 5b ba 16 bc b9 b7 97 3c cd b4 31 3d
       0.0017491768 -0.009199704 0.018520223 0.043385316
000130 7b f3 5e bc 1a c2 02 3d 03 74 8a bc 7b ee 98 39
       -0.013607855 0.03192339 -0.016901022 0.0002916938
000140 25 2a df bc 9e b9 7e bc a5 c9 6d bd 1e a8 26 3d
       -0.027241776 -0.015547184 -0.05805363 0.040687673
000150 34 65 34 3d 1c d8 ec 3c 65 5b 52 bd 84 4e 19 3d
       0.044041827 0.028911643 -0.051356692 0.037428394
000160 16 be 9b bc 29 da fc 3c a2 54 6a bd 0b 6c 8c bc
       -0.019011538 0.030865746 -0.05720962 -0.017141363
000170 63 81 33 bc eb 94 ec bc f7 ff a3 3b 0e 30 3d 3d
       -0.010956141 -0.028879603 0.0050048786 0.046188407
000180 75 ce 90 3c 13 a1 a2 bc 7a 8d 13 3d 9a f3 73 bc
       0.017676571 -0.019852197 0.036023594 -0.014889622
000190 2e bf eb 3c 0d fb 28 3d 98 f8 a6 3a c9 7e 05 3d
       0.028777685 0.041255046 0.0012738882 0.032591615
0001a0 19 1f 50 3b d9 6e 74 3d 94 bc 8d 3d e0 c4 97 3c
       0.0031756817 0.059676025 0.06920734 0.018526495
0001b0 aa e2 6c 3d 00 01 0a 3b 67 6f 27 bd b3 94 01 bd
       0.05783335 0.0021057725 -0.040877726 -0.03163595
0001c0 aa 23 ce bb 5d a4 ae 3c bd 95 64 3c 55 5f b0 3b
       -0.0062908726 0.021318609 0.013951716 0.005382458
0001d0 f8 fa 7c 3d 1a bd 33 3d 45 bf e2 3c 88 9f 3f 3d
       0.06176278 0.043881513 0.027679095 0.046783
0001e0 0f 77 bf 3c af d9 9c bc 7d 66 63 3b f9 88 89 3c
       0.023372201 -0.019146768 0.003469854 0.016788946
0001f0 0a b3 c1 b9 20 a2 5f 3d 2b 08 68 3d 51 17 86 3a
       -0.00036945223 0.054597974 0.056648415 0.0010230338
000200 2f 5c 81 3b bb d2 ca 3b ff 2a 33 bd fb 2e c2 bc
       0.0039477567 0.006189672 -0.043742176 -0.023704043
000210 6e 5d 4f 3d 64 f8 15 3d d4 0c ef bc 5e e9 fd bb
       0.05062621 0.036613837 -0.029180922 -0.007748767
000220 35 71 23 3d e3 21 42 bc cb c0 f6 3b b6 a5 52 3d
       0.039902885 -0.0118489 0.007530307 0.051427566
000230 58 cb 7a 3c 4b 25 9f 3c fa 15 9b bc f9 60 2d bd
       0.01530727 0.019426962 -0.018931378 -0.04232881
000240 6d 2c 15 3d 41 3e b3 bb 06 ee 2d 3d 9c e8 21 3d
       0.03641932 -0.0054700677 0.042463325 0.039528474
000250 2b 29 6a 3b 86 41 8e b9 48 88 09 3c 3e d2 b1 3c
       0.0035730104 -0.0002713317 0.008394308 0.021706697
000260 f7 e5 e0 3c 71 f3 3f 3d 52 4a 30 bd 88 c7 f3 3b
       0.027453406 0.046863023 -0.043039627 0.0074395575
000270 0e 2c ec 3c 59 21 10 3d 45 2d 01 3c 2d 76 8c bc
       0.0288296 0.035188053 0.007884328 -0.017146194
000280 74 36 ae 3c 35 8d 22 3c 88 19 0c 3d 4d 5a 11 3d
       0.0212662 0.009921362 0.034204036 0.03548651
000290 f9 1d 0d bd 85 df 9e bc c3 d8 33 3d ed f9 6f 3d
       -0.034452412 -0.019393692 0.043907892 0.058587957
0002a0 52 77 6c 3d 8a 56 35 3c 85 3d 0c bd af 2e 49 bc
       0.05773098 0.011067996 -0.034238357 -0.012279197
0002b0 2a 57 0f bc e5 aa 40 3c c7 01 4d bc d9 02 73 3d
       -0.008748809 0.011759494 -0.012512631 0.059328888
0002c0 9c ca 1d 3d f7 cf e0 bc 14 7d ee bc 03 6c ea bc
       0.0385233 -0.027442915 -0.029112376 -0.028615957
0002d0 ad 5c 58 bd a2 c3 12 bd 57 d9 35 bd 3a ab 59 3d
       -0.052822758 -0.0358311 -0.044396725 0.05314181
0002e0 71 f8 12 3c 5e e0 6f 3d 44 1c 4f 3c 11 7e 5c bc
       0.008970366 0.058563583 0.012641016 -0.013457791
0002f0 6d e3 07 3b 78 9a cc 3c 62 8b 1c bc 2d 20 ee 3c
       0.0020734922 0.024976 -0.009554716 0.029068077
000300 f1 62 17 3d 09 36 b6 bc dc 7b f8 bc 45 a9 07 bd
       0.036959592 -0.022242563 -0.030332498 -0.033120412
000310 55 eb 15 3d 80 a3 05 bd 60 53 eb 3c 5f 97 49 3d
       0.036601383 -0.03262663 0.02872628 0.049216624
000320 1a 12 19 3c 19 52 1b 3d b1 19 64 bd e4 2d 2f bd
       0.009342695 0.03792009 -0.055688564 -0.042768374
000330 d4 aa 44 bd 3b da 74 3c 2c 61 47 bd bd 31 1a 3d
       -0.048014477 0.014944608 -0.048676655 0.03764509
000340 6a 12 35 3d 8b d4 8d bc de d0 81 bb 7b 77 03 3d
       0.044207014 -0.017313262 -0.0039616665 0.032096367
000350 a5 58 87 3c de 7c e4 bc 68 6e 68 bd d8 36 32 bd
       0.016521761 -0.027891573 -0.056745917 -0.043509334
000360 47 3f 13 bd 8b 12 46 3d 13 18 f2 bb a5 fc c2 3c
       -0.035949018 0.048357528 -0.007388124 0.02380211
000370 be 81 a2 bc 31 8b 03 bd 6d 5c 3e bd 9e a4 ab 3c
       -0.019837257 -0.032115165 -0.046474863 0.020952519
000380 bf 69 40 bd 2a 4d 05 bd c8 d3 c3 ba 97 6b 2c 3c
       -0.046975847 -0.032544293 -0.0014940435 0.010523698
000390 2e 57 b4 bc 1f 62 40 bb bf 8c 94 3c 70 1b 04 bd
       -0.022014227 -0.002935536 0.01813352 -0.03225273
0003a0 9d bd 2f bd 83 9d 57 bd c8 27 68 3c 36 e0 31 bc
       -0.04290544 -0.05264045 0.014169641 -0.010856679
0003b0 37 73 51 bd c2 04 3e 3d 16 62 ea bc 46 a2 3b b9
       -0.051135268 0.046391256 -0.028611224 -0.00017894161
0003c0 3f 41 b7 3c cf a4 3f bc 5a f9 00 bd 69 8e f6 bc
       0.022369979 -0.011697008 -0.0314878 -0.030097203
0003d0 71 70 11 3d d1 82 3f bc 48 81 4e bc 18 21 9b 3c
       0.035507623 -0.011688904 -0.012604065 0.018936679
0003e0 50 08 98 3c a9 d5 14 bd 63 bf 8e bc 30 09 41 bd
       0.018558651 -0.036336575 -0.017425245 -0.047127903
0003f0 a6 c4 3f 3c 91 8a b6 bc f2 e8 22 bd b8 ac eb bc
       0.0117045995 -0.02228287 -0.039772935 -0.028768882

conv_layer1.bias f4 [32]
000000 63 1a e8 bc 07 c4 a9 bc 1f d7 7c bc ac e9 d0 bd
       -0.028332895 -0.020723356 -0.015432148 -0.102008194
000010 10 2f 9c bd b1 3a 09 bd e2 80 b7 bc e0 cf 89 bd
       -0.07626164 -0.033503238 -0.022400323 -0.06729102
000020 87 76 43 bd a7 0d f9 bd e9 5d ad bc 40 69 55 bd
       -0.04772046 -0.12160807 -0.021162944 -0.052102327
000030 f2 07 94 bc 7d c1 dd bd 6f 5d cb bc 70 8e ad bd
       -0.018070195 -0.108279206 -0.024824826 -0.084744334
000040 84 e4 07 bd e7 99 23 bd 91 09 9b bd e8 b6 cd bd
       -0.033176914 -0.039941695 -0.07570184 -0.10044652
000050 0d 1e 0b bd 3e 96 51 bd 7a ca 83 bd 48 a4 b4 bc
       -0.033964206 -0.051168673 -0.06435104 -0.022050992
000060 fa fc 75 bd 8b cd d4 bd 32 d7 26 bd 42 a9 b4 bd
       -0.06005571 -0.10390767 -0.04073257 -0.08821346
000070 e4 3d 5e bb c6 f5 d8 bd e3 9a c4 bb b8 f4 37 bc
       -0.0033911401 -0.105937526 -0.0059999092 -0.011227779

conv_layer2.weight f4 [64, 32, 4, 4]
000000 91 00 74 3b 75 ab 03 bd 6b ce 00 bc 14 ec 19 3d
       0.0037231783 -0.032145936 -0.007861714 0.037578657
000010 14 a7 c3 bc e1 bd de 3c 92 60 5f 3c a0 1b 21 3d
       -0.02388338 0.02719015 0.013633864 0.039332986
000020 8b af 0d bd 0d f9 95 3c 3d 91 06 bd be 11 91 bc
       -0.03459124 0.018307233 -0.032853354 -0.017708655
000030 c4 2a a7 3c 8c 36 6d bc 82 52 d1 3c f4 83 2e 3a
       0.020406134 -0.014478337 0.025552038 0.0006657236
000040 6d 86 32 3c 99 8b 0f bc d2 2c 47 bc cf 3f fc 3c
       0.010896307 -0.00876131 -0.012156682 0.030792145
000050 00 df b9 bc f5 f5 13 bd 7c 7c 30 bb 0d d5 1b bb
       -0.022689342 -0.036123235 -0.0026929667 -0.0023778111
000060 67 fe 78 3c 2b f6 68 3c 1d 39 2d 3c 17 e1 42 bc
       0.015197373 0.014218847 0.010572699 -0.011894486
000070 68 df 48 3d a8 c9 cf bc b8 60 47 bc da 81 04 bd
       0.04904118 -0.025364712 -0.012169056 -0.0323504
000080 e2 2f 08 bd 66 8d d4 3c 6b 4f 29 3c de b6 0b 3d
       -0.03324879 0.02594633 0.010333876 0.034109943
000090 d3 80 08 bd fb 5e d2 bc 71 9c 59 3c b0 84 9b 3c
       -0.03332598 -0.025680056 0.013281927 0.018984169
0000a0 ab 11 4b bc 6d 4d 6d 3b 9d eb 86 3b 69 5e 2a bc
       -0.012394349 0.003620948 0.0041174428 -0.010398486
0000b0 8b 64 d7 bc d4 e6 3a bd 75 97 60 3d b3 a6 81 3c
       -0.02629306 -0.04563029 0.05483194 0.015826559
0000c0 62 31 00 3c 2a ee 05 3d 14 8c 0c bd d9 45 46 bd
       0.007824274 0.032697834 -0.034313276 -0.048406456
0000d0 4f 7b 52 3b ba 63 6e bc 7c 5d ec 3c 80 2c de bc
       0.0032116955 -0.014550144 0.02885317 -0.027120829
0000e0 1a 2e 47 bc 50 e7 80 3c da 84 29 bd f5 61 e0 3c
       -0.012156988 0.015735298 -0.041386463 0.02739046
0000f0 f2 95 ed bb 45 d0 b6 3c 1f bc e8 3c 49 14 f3 3b
       -0.007250541 0.022316108 0.028410016 0.0074181897
000100 c5 73 21 3d 71 05 6c 3d 0c c9 16 bc 68 cb 57 bc
       0.039417047 0.057622377 -0.009203207 -0.013171054
000110 9d 8f 13 3d 35 4a 57 3d a7 16 fe 3b bd bb 00 3d
       0.036025632 0.052561004 0.007754165 0.03142904
000120 b2 2f ca 3c 64 c1 5d bd 31 ea 7c bd 96 29 bd bb
       0.024680946 -0.05413951 -0.06174678 -0.0057727797
000130 9a 3b 48 3c 81 fd 78 bc 7e 7a a3 3c 52 d8 83 bc
       0.012221241 -0.015197159 0.01995587 -0.01609436
000140 28 07 9f bc 40 ae d0 bb 74 8f 4c ba c0 79 8f bc
       -0.019412592 -0.0063684285 -0.00078033586 -0.01751411
000150 b3 31 3e 3a 96 29 52 3c bb d1 01 3c b3 8a e8 bc
       0.00072553306 0.012827298 0.007923539 -0.02838645
000160 80 09 e9 3c 28 4f f4 3c c9 e5 64 bc b9 8a 47 bc
       0.028446913 0.0298229 -0.013970801 -0.01217907
000170 2d e7 87 bb 63 62 e8 39 e4 44 3e bd 30 dc 9e bb
       -0.0041474313 0.00044323792 -0.046452418 -0.0048480257
000180 4f d2 f9 bc 3d 87 9a 3a d8 ec 2a 3a 33 b6 61 bd
       -0.03049579 0.0011789572 0.0006520278 -0.0551054
000190 d0 b0 a2 3d 80 c7 50 bc a7 53 21 bc f1 47 b7 bc
       0.079438806 -0.012742877 -0.009846604 -0.022373172
0001a0 83 e0 11 bd 73 c0 48 bd cb 00 07 3d f8 6c aa bc
       -0.0356145 -0.04901166 0.03295974 -0.020803913
0001b0 ad e1 71 3d 0d e6 da bc 3e 9a a5 bc 03 9f 07 bd
       0.05905311 -0.026721025 -0.02021515 -0.03311063
0001c0 b9 69 55 bd 30 06 c7 3c 0a ac 80 bc 55 29 27 bd
       -0.052102778 0.024294943 -0.015707035 -0.0408109
0001d0 9f 25 08 3c 27 26 ff 3c 58 e5 bc 3c 06 85 9b 3c
       0.008309751 0.031146122 0.023058578 0.018984329
0001e0 7a 8e 9b 3c 2b 1f 2f 3c d2 14 4e 3d 1c 40 1e 3c
       0.018988837 0.010688583 0.050312825 0.00965884
0001f0 76 ce de bc 1a 9d eb 3c 77 ef d0 3c ed b6 8d 3b
       -0.027198058 0.028761435 0.02550481 0.004324785
000200 1c 5f 4c 3c cc 44 bb 3c 11 62 21 bc 08 5b d7 bc
       0.012473848 0.022859953 -0.009850041 -0.026288524
000210 eb f6 f8 3c 97 87 9b 3c 47 29 ac 3c 27 e9 b2 bc
       0.030391177 0.018985553 0.021015776 -0.021839691
000220 c6 67 71 bd 2f 1c 06 3c 36 f6 31 bd 72 59 13 bb
       -0.058936857 0.00818543 -0.043447696 -0.0022483733
000230 1f c0 22 bc 12 8c 98 bc 88 b8 f8 3c 52 2f 22 bc
       -0.009933501 -0.018621478 0.030361429 -0.009898977
000240 ff c9 2c 3d 12 5d f7 bb 83 86 83 bc f7 74 c0 3c
       0.042184826 -0.0075489366 -0.016055351 0.023493273
000250 0d 48 e3 bc 17 bc 0b 3d 2d 66 42 bc 0e 9a d0 bc
       -0.027744317 0.034114923 -0.011865181 -0.025464084
000260 1f 24 51 3d 73 ff be 3c 98 a8 02 3a a3 98 22 3d
       0.05105984 0.023315167 0.0004984229 0.039696347
000270 a0 44 07 3d 82 95 b5 3b 79 cb b2 3c e3 71 21 3d
       0.03302443 0.0055415044 0.021825539 0.03941525
000280 c5 77 63 3d 3f fa 34 3c 80 dc c4 bc 47 68 ed bb
       0.055534143 0.011045991 -0.024030924 -0.007245097
000290 e0 f5 8b bc 68 5d 18 3d da 44 ad 39 f0 15 04 3c
       -0.017085016 0.037198454 0.0003304843 0.008061871
0002a0 db d7 f6 3b eb da 44 3c 3c 2a 74 3d 05 82 64 3d
       0.007533056 0.012015085 0.05961059 0.05578806
0002b0 57 bb 70 3c 6c 15 63 3d 95 c6 82 3c a3 c8 8e 3b
       0.014693103 0.05544035 0.015963832 0.004357414
0002c0 33 b9 27 3d ac 4e 29 3d 9f 6e 88 bb 38 f1 47 bc
       0.040948104 0.041334793 -0.0041635777 -0.012203507
0002d0 42 31 3a 3d 91 63 08 3d 13 ed 2e bd b2 b0 e4 3c
       0.045457132 0.03329808 -0.04270656 0.027916286
0002e0 63 a0 d4 bc fd a6 32 bd 2b 0f 8f bd 42 93 78 bb
       -0.025955385 -0.043616284 -0.06985315 -0.003792957
0002f0 36 c1 79 3d c1 85 18 3c a2 24 23 bc e7 f9 e2 3c
       0.060975276 0.009309233 -0.009957464 0.027707053
000300 30 8a 29 3d 17 bb 85 3c 74 9c f0 3c 66 c8 28 3c
       0.04139155 0.016324563 0.029371478 0.010301685
000310 1c b6 d3 bc 99 0e 39 bc 00 d7 72 3b ae 3a fe bc
       -0.025843672 -0.011294984 0.003705442 -0.03103384
000320 5c 0f a1 3c 4e 0a 2a 3d 78 a6 17 3b 0e f6 00 bc
       0.019660644 0.041513734 0.0023139995 -0.007871164
000330 42 c1 1c bd 11 3b 02 bc dd 8d 14 bd 70 55 0c 3d
       -0.038270243 -0.007948653 -0.036268104 0.034261167
000340 64 b6 bf 3c 2c 98 02 bd f0 72 78 3b 6f cb ad 3c
       0.0234024 -0.031883404 0.0037910305 0.021215169
000350 b4 54 37 bb 57 f3 cf 3b 97 94 09 3d bb 08 71 bd
       -0.002797407 0.006346147 0.033588972 -0.058846217
000360 d5 47 e8 bc 54 80 c8 bc f2 61 3b 3d 7e df 5c 3d
       -0.028354565 -0.024475254 0.045747705 0.053924076
000370 d1 7c 16 3d 5a 1e b3 bc fd 84 6f bb 44 62 5e bc
       0.036740128 -0.021865059 -0.0036547773 -0.013573233
000380 12 f5 00 bd ec c7 52 bd 6d 89 82 bd 8d d3 66 bd
       -0.031483717 -0.05146019 -0.06373868 -0.056354094
000390 43 ac 30 3d 3f 6b 95 3d 76 bd 99 3d c6 a3 2f 3d
       0.04313303 0.07295846 0.0750684 0.042880796
0003a0 e9 6e 3e bd 5b 32 9b 3c 30 5e f9 3c 24 83 2e 3d
       -0.04649249 0.01894491 0.03044042 0.042605534
0003b0 29 94 9b 3b c4 46 f1 bc 1b fe 11 bd 61 2f 2a 3c
       0.0047478867 -0.029452689 -0.035642724 0.010387273
0003c0 7d 42 ae bc 95 bf 98 bb d2 5b d3 bc 86 23 ee 3b
       -0.021271938 -0.0046615102 -0.02580062 0.0072674183
0003d0 4b 1e 12 3d 89 b6 e5 bb 1a 7e 45 ba b8 9a 37 3c
       0.03567342 -0.0070102853 -0.0007533744 0.011206321
0003e0 1f 96 ad bc 59 19 0d 3d b9 5c dd 3c 28 82 1f 3d
       -0.021189747 0.034448 0.027021753 0.038942486
0003f0 2c 04 da bb 2a 89 54 3d d2 1e 21 3d fa 16 ba bc
       -0.0066533294 0.051888622 0.039336033 -0.022716034

conv_layer2.bias f4 [64]
000000 ab 5f 04 3d a3 8f 8e bb 47 44 87 3d 72 ec 0c 3c
       0.0323178 -0.004350619 0.0660482 0.008601295
000010 61 b2 34 3d c5 0c 22 3d b0 ae 57 bc ee 05 98 3c
       0.044115428 0.03956296 -0.013164207 0.018557515
000020 bc 38 8f bc c9 c9 b3 3c da 41 e8 3c 01 62 56 bd
       -0.017483108 0.021946805 0.028351713 -0.052339558
000030 4a 32 1d bc 8f fd 61 3d 7b 31 81 bd d6 f3 87 bb
       -0.009594509 0.055173453 -0.06308266 -0.0041489406
000040 e0 40 5c 3d 04 d8 63 bc c8 ed 08 3d 78 08 29 3d
       0.053772807 -0.013906483 0.03342989 0.041267842
000050 a3 4f 0d bc 1b a2 d4 3c c7 3a bc 3c 3b 56 5e ba
       -0.008624944 0.025956204 0.022977246 -0.0008481477
000060 76 f0 b7 3c 4f 6d e5 bc c6 38 31 bd d2 b4 15 bd
       0.022453528 -0.028006224 -0.043267034 -0.036549397
000070 60 75 e5 3c e5 62 f2 3c 26 ec 23 bd f0 52 03 3c
       0.02801007 0.029588172 -0.04002013 0.008015379
000080 4c ec 6c bd 1c 9a 45 3d 07 43 92 3c be cf 1a 3d
       -0.057842538 0.048242673 0.017854227 0.037795775
000090 e9 1e 47 bd d1 eb 38 3d 3a 49 71 bd 21 33 12 3d
       -0.048613463 0.045146767 -0.058907725 0.03569329
0000a0 d8 d0 11 bc e4 46 bc 3b 2d 12 a8 bc d8 35 ee 3c
       -0.00889989 0.0057457555 -0.02051648 0.02907841
0000b0 ea 27 83 3c 42 c5 83 bc 08 26 0b 3d 01 1e 46 bd
       0.016010243 -0.01608527 0.033971816 -0.048368458
0000c0 06 da 18 bd b5 7e 9c 3b 64 79 d6 bc eb 54 54 3c
       -0.0373173 0.004775847 -0.02618093 0.012959699
0000d0 b0 ab 37 bb b3 d4 51 bc 89 bb bf 3b 33 a8 74 39
       -0.0028025918 -0.012807059 0.0058512134 0.00023332312
0000e0 da 74 77 bc 9e d6 7e bc e1 38 58 3b 6e 19 9d bc
       -0.015103543 -0.015554098 0.0032992887 -0.019177165
0000f0 34 4d 05 bd e7 6a 66 3d 57 3b d7 3c 70 30 3d 3d
       -0.03254433 0.056254294 0.026273413 0.04618877

conv_layer3.weight f4 [64, 64, 3, 3]
000000 3d 31 84 3c 26 1f 01 bd 52 0b 94 3d ed 13 9d 3c
       0.01613676 -0.031523846 0.07228722 0.01917454
000010 d9 56 be bc 1b b6 99 3c 87 68 ce bc 99 04 e5 bc
       -0.023234772 0.018763592 -0.025196327 -0.027956294
000020 b6 5b 10 3d 49 b3 31 bc 7d 11 ed 3c ae 32 a8 b9
       0.035243712 -0.010845968 0.028939003 -0.00032081216
000030 e2 8c db 3c 7b 01 0c ba 43 d1 00 bd 11 a5 c9 3c
       0.026800577 -0.0005340797 -0.031449568 0.024614843
000040 d0 4b c3 3c 89 e4 87 bb f8 8c a9 bc 9b d9 02 3b
       0.023839861 -0.0041471166 -0.020697102 0.0019966129
000050 31 ea ca 3c f6 14 12 3d 5e e8 bb bc 09 bb 9f bc
       0.024769874 0.03566452 -0.02293795 -0.019498365
000060 e5 54 cb 3a 74 29 c0 3c c3 8b 17 3d 01 d7 86 bd
       0.0015512971 0.023457266 0.03699852 -0.065839775
000070 e5 e7 bb bc 08 98 d0 bb dd 33 91 3c d7 c7 ab 3b
       -0.022937724 -0.00636578 0.017724926 0.0052423286
000080 85 10 45 3c de f0 10 bc e1 d0 94 bc d5 bc 80 3b
       0.012027864 -0.00884649 -0.018166007 0.0039287605
000090 cf be 5f bd 4e 75 ec bc 43 e7 20 bd e5 f7 65 bc
       -0.05462533 -0.028864529 -0.03928305 -0.014036153
0000a0 54 fe 0e 3d 05 b3 91 ba 20 70 ea 3c e3 d8 b7 bc
       0.034910515 -0.0011115974 0.028617918 -0.022442287
0000b0 cd 7c c8 3c 65 16 69 3c 3f f4 0e ba f5 af 1b 3d
       0.024473572 0.014226531 -0.00054532656 0.038009603
0000c0 18 82 a9 bc 12 c8 b0 bc 33 13 37 3d cb ca 6d 3d
       -0.020691916 -0.021579776 0.044696044 0.058054727
0000d0 cc 7a e2 bb 7e 83 19 bd 51 59 2b 3b b8 9e fd bc
       -0.006911611 -0.037478916 0.0026145766 -0.030959472
0000e0 74 16 3f bc e7 af 39 3d c2 44 99 3c 44 04 5f bc
       -0.011663068 0.04533377 0.018709544 -0.013611857
0000f0 55 9f 06 bd 69 b9 81 3c 7f c1 29 bd a7 0b 79 3c
       -0.032866795 0.01583548 -0.041444298 0.015200532
000100 bf 26 0a 3d fc 13 83 bb e7 b8 27 bd ce 47 df 3c
       0.033728357 -0.004000185 -0.04094782 0.027255919
000110 44 15 e5 3c 6a 3a 21 3a fc f8 86 bd 7b 23 3c bd
       0.027964242 0.0006150367 -0.06590459 -0.045932274
000120 11 85 4b 3d e0 74 5f 38 96 fd 06 bd 06 13 35 bd
       0.04968745 5.327619e-05 -0.032956682 -0.044207595
000130 9d bf 8f 3c b4 40 78 bb 6e f1 a7 3c 17 39 00 3d
       0.017547423 -0.0037880363 0.020500865 0.031304445
000140 dd ef 02 3d 32 1c c6 3b 09 f1 99 3c c1 11 1c bc
       0.031967033 0.0060458416 0.018791692 -0.009525717
000150 05 09 15 bd 82 22 8c 3c 50 3d 71 3d 7b 39 be bc
       -0.036385555 0.017106298 0.058896363 -0.023220768
000160 ab b9 79 3c 82 72 76 3d f6 aa 8b bb 17 05 34 3c
       0.015242021 0.060167797 -0.0042623235 0.010987542
000170 16 20 0f 3c 27 af 1b 3b 8f 39 6e ba fa e5 8e 3d
       0.008735677 0.0023755522 -0.00090875564 0.06977458
000180 81 86 33 3c bd 21 bb 3c 41 96 40 3d 21 d5 15 3d
       0.010957361 0.022843236 0.047018293 0.03658021
000190 f9 93 c8 bc 56 64 5c 3d 85 31 4c ba b6 f0 88 bc
       -0.024484621 0.053806625 -0.00077893614 -0.016716342
0001a0 b6 a1 f6 3b 5f 09 9a 3c d9 f7 17 bc a8 9f e7 bc
       0.0075266017 0.018803297 -0.0092754 -0.028274372
0001b0 31 38 33 bb 3b c7 78 bc 95 19 3c bc bb f3 11 bd
       -0.0027346725 -0.015184219 -0.011480709 -0.03563283
0001c0 ea c2 83 bb 26 fb a7 3c 07 a2 08 bd cb c1 40 3d
       -0.0040210383 0.0205055 -0.033357646 0.047059815
0001d0 be ca 02 3c 27 aa f7 bc 95 0c 3c 3b 05 e8 cd bb
       0.007982908 -0.030232502 0.0028694023 -0.0062837624
0001e0 ff a2 5a 3c 33 11 19 3c 61 fd 04 3d 46 a3 b2 bc
       0.013344525 0.0093424795 0.032468203 -0.02180637
0001f0 b9 10 f0 3b 52 78 0f 3d 6a 0a 28 bc 94 2f 35 bd
       0.0073262122 0.035026856 -0.010256389 -0.044234827
000200 ec 35 5a bd 8f 66 26 bd 3d 20 d7 3c f0 d1 99 bc
       -0.05327408 -0.04062515 0.02626049 -0.018776864
000210 99 5b 25 bd 7b 26 1d bd 05 e2 04 3d db 24 c1 3c
       -0.040370557 -0.038366776 0.03244211 0.023577144
000220 ad 0c 7c 3c e8 fe ad 3b 8e bc 63 bd 19 bb 21 bc
       0.0153838815 0.005309928 -0.05559974 -0.009871268
000230 7f db 94 3b 3f 57 f1 bc 5c 06 63 3c 7b ce 65 bd
       0.0045427675 -0.029460547 0.013856497 -0.05610512
000240 0a 60 58 bc b2 09 be 3c 51 86 83 bc 5b 26 12 bc
       -0.013206491 0.023197982 -0.016055258 -0.0089202775
000250 d7 11 01 bd 99 f5 3b 3d a4 ff 9c bb 92 ef 2e 3c
       -0.031511154 0.045888517 -0.004791217 0.010677235
000260 a2 e1 ae 3c 66 0d b1 3c 27 f0 d9 bc f1 e4 fa 3b
       0.021347824 0.021612834 -0.026603771 0.0076566865
000270 18 dd 58 bc c4 f5 60 3a 9f 2f a4 bc ec a5 80 3c
       -0.013236307 0.0008581544 -0.020042239 0.015704118
000280 fd 91 14 bc 5f 92 01 3c 07 19 62 3d 21 dc c3 3b
       -0.009068009 0.007908433 0.05519965 0.005977169
000290 e6 1a 2f 3b 52 97 8f bc 83 4b 2c 3d 87 8c b7 3c
       0.0026718914 -0.01752821 0.0420642 0.022405876
0002a0 41 44 49 bc f4 b9 15 3d 14 d4 6b bb 95 1c 67 3b
       -0.012284339 0.03655429 -0.0035984563 0.003526484
0002b0 7c 42 89 bb c2 0d c7 3c 09 77 14 3d 8c 39 1b bd
       -0.0041888338 0.024298552 0.036246333 -0.037896678
0002c0 c7 4a c4 bc 2f cf aa bc 65 c9 02 bc 5b f1 05 3d
       -0.023961438 -0.020850746 -0.0079825865 0.032700878
0002d0 3f 6c c0 3c 03 b8 03 3c 03 ce 40 3c 55 e5 ef bc
       0.023489116 0.008039477 0.011767867 -0.029284159
0002e0 63 5e f5 bc 42 73 91 bc 66 3b f5 3b 49 fb 9f bc
       -0.029952234 -0.017755155 0.0074838875 -0.019529002
0002f0 dd 3b d9 bc a4 8b 91 3c e9 66 cc 3c b2 ea 08 3d
       -0.026517803 0.017766781 0.024951415 0.033426948
000300 20 23 49 3d 31 2c 8d bc 10 8f f3 bc 86 c5 96 3c
       0.049105763 -0.017232986 -0.029731303 0.018404733
000310 e7 7e 56 bc ea 67 df bc 56 b2 10 3d 8b fd 93 3c
       -0.013091779 -0.02727123 0.035326324 0.018065235
000320 20 17 b2 bc b6 85 4c bc 40 2a 58 3c b7 fa 6c 3c
       -0.021739542 -0.012483051 0.013193667 0.014464072
000330 48 a6 cb bc dd 34 98 bc a7 e2 2e bd 93 f6 9b 3b
       -0.024859563 -0.018579895 -0.04269662 0.0047596185
000340 02 14 3e 3c 99 36 96 bc b4 a2 8d bb 6c dc ee 3c
       0.01160145 -0.018336581 -0.0043223742 0.02915784
000350 81 ad db 3c 85 74 19 3d f9 eb e3 3b 71 c6 14 bd
       0.026816132 0.037464637 0.0069556204 -0.03632206
000360 ae df 96 bc f3 ec 02 3d 8e 1f af bc 02 6d f2 bc
       -0.018417206 0.031964254 -0.021377351 -0.029592995
000370 45 75 fd 3c 45 ee 1a 3d 52 9a 23 3c 4d 9c 1b 3d
       0.030939708 0.037824888 0.009985523 0.037990857
000380 08 e9 7f bc 14 0d 93 3c 89 03 2a 3b 07 6d c7 bb
       -0.015619524 0.017950572 0.0025942049 -0.006085995
000390 0f 74 61 bc b8 f5 0b 3b 5f b5 a2 bc 39 5e 2e bc
       -0.013760581 0.0021356177 -0.019861875 -0.010642582
0003a0 e0 ee ad bc 7e 56 03 3d 80 52 01 3c 04 35 80 ba
       -0.021232069 0.032064907 0.007893205 -0.0009781425
0003b0 39 df 01 bd 07 67 81 3b 50 95 b2 3c 36 7e ab ba
       -0.031707022 0.0039490494 0.021799713 -0.0013083878
0003c0 af 07 ef bb e5 69 80 bc 98 bf b4 bc 4a 04 95 3c
       -0.007294617 -0.015675494 -0.022064015 0.018190522
0003d0 34 61 5b 3d a2 02 e7 bc ba 3c 9a bc f8 a2 8c 3c
       0.053559497 -0.028199498 -0.018827785 0.017167553
0003e0 c1 15 10 bd cf a1 28 bd 89 bc 2b 3d 82 6c 03 bd
       -0.035176996 -0.041169938 0.041927848 -0.032085903
0003f0 73 d5 d7 bb b1 fc ee 3c 26 90 1f bc ad d0 04 bc
       -0.0065867244 0.029173227 -0.0097389575 -0.008106393

conv_layer3.bias f4 [64]
000000 5d f6 ef 3c 5c 48 51 3c c7 f3 cf bc 06 57 4b 3d
       0.02929228 0.0127735995 -0.025384797 0.04964354
000010 f3 d4 25 3b dd ee 86 bb 89 09 17 bd 80 4f f8 3c
       0.002530393 -0.00411783 -0.036874328 0.030311346
000020 73 ca d2 3c a0 16 1a 3d 1c 28 ec bb 8f 75 eb 3b
       0.025731301 0.037619233 -0.00720693 0.007185645
000030 b2 f4 83 bc d0 0c 35 bd ae e2 b1 3c a7 16 13 bc
       -0.01610789 -0.044201672 0.021714535 -0.008977569
000040 da a7 0f 3d 12 f4 ca 3c 7a a4 ca ba c4 cf 10 bd
       0.035072185 0.024774585 -0.0015460395 -0.03535439
000050 22 fa c8 bc 3c 72 8c bc 88 d6 50 3c 68 22 95 3c
       -0.024533335 -0.017144315 0.012746461 0.018204883
000060 f8 39 67 bc 8d fc ad bc c2 70 a5 3c fd 78 af 3c
       -0.014112942 -0.02123859 0.020195369 0.021419996
000070 a4 b6 9e 3c d2 d1 e5 3b 2c 77 51 bc b8 dc 0e bd
       0.0193742 0.007013538 -0.01278476 -0.034878463
000080 0f e4 9a 3c e5 ae 53 3c 9b c0 75 3c c9 64 11 bd
       0.018907575 0.012920116 0.014999534 -0.035496507
000090 35 4e 65 bc 67 9b cd 3c f5 5c 75 3c 4d 1e fa 3c
       -0.013995697 0.025098516 0.014975776 0.030532027
0000a0 a9 fa cb 3c 76 e3 40 bc 76 c3 12 3d 6d 65 0d 3d
       0.024899798 -0.011772981 0.035830937 0.034520555
0000b0 1a 64 67 3c 08 f3 fb 3c 42 41 f9 3c 44 b3 70 3c
       0.014122987 0.030755535 0.030426625 0.014691178
0000c0 57 83 ba 3c 17 e1 8e 3c dc e7 a6 3c d6 6c ea bc
       0.022767706 0.017441316 0.020374231 -0.02861635
0000d0 4a 18 df 3c 46 3d 9f 3c 71 f7 2a bc f7 25 49 3c
       0.027233262 0.019438397 -0.010434971 0.012277118
0000e0 db ab 35 bd 1c 0e 00 3d 97 c3 1f 3d d6 12 ff bc
       -0.044353347 0.031263456 0.03900489 -0.031136911
0000f0 ca f7 bb 3c d8 f1 47 3c 8e 25 28 bd ff 13 da bc
       0.022945303 0.012203656 -0.04105144 -0.026620863

fully_connected_layer1.weight f4 [1, 8192]
000000 45 82 b3 bb ac ba 95 bb dd b2 d6 bc 09 47 9a bb
       -0.005478176 -0.004569372 -0.026208336 -0.004708175
000010 b7 1f ee 3b 7b 35 9b bb d2 f1 83 3c 01 5d d9 b9
       0.0072669643 -0.0047366 0.01610652 -0.0004145876
000020 97 e0 0b bc 47 f9 53 bc cc 41 7f bb 6f d9 a0 3b
       -0.008537433 -0.01293785 -0.003894913 0.0049087326
000030 19 48 49 3b de 2b 16 bc c0 dc 16 bc 59 ff b0 3c
       0.003071314 -0.009165732 -0.009207904 0.021606134
000040 15 66 a1 ba 25 01 37 bc 92 1c e1 3b 63 88 8a bc
       -0.0012313748 -0.0111697065 0.006869861 -0.016910737
000050 51 1f ba bc 9b 9f 85 3c de f0 dd 3b 57 87 87 bc
       -0.022720011 0.016311457 0.0067730984 -0.016544027
000060 9e 8a 1e bd 2a 2d 2d bc ed 05 20 3d 40 b7 18 3c
       -0.038706414 -0.01056985 0.03906815 0.009321034
000070 f6 8b 50 bc a9 88 8f bc 92 0b db 3a 7b f1 a7 3c
       -0.012728682 -0.01752122 0.0016711822 0.020500889
000080 fe 88 bb 3c 24 93 58 bc c1 f2 90 3c 13 f6 84 3c
       0.022892471 -0.013218675 0.01769388 0.016230619
000090 89 d1 96 bc 18 0a a4 bc c5 e0 8d bc bc 6b 3d 3c
       -0.018410461 -0.020024344 -0.017319093 0.01156133
0000a0 c8 37 26 3c 78 1f e6 3b a5 00 ab 3b 19 a1 18 bb
       0.010145135 0.0070227943 0.0052185827 -0.002328938
0000b0 10 5e 56 bc c4 01 ce bc 37 cc 81 bc c3 34 82 bc
       -0.01308395 -0.025147326 -0.015844448 -0.0158943
0000c0 85 15 ab bc ad 89 ad bc cc 61 6d 3b 9f aa 17 3d
       -0.020884285 -0.021183813 0.0036221622 0.03702795
0000d0 6b 8d 82 3b e7 65 23 3c e9 90 c8 bb b5 3a 91 3c
       0.0039841435 0.009973026 -0.0061207903 0.017728189
0000e0 6a d9 36 3c 0a c1 16 bc 64 80 90 3c 7d 00 71 bc
       0.011160234 -0.009201298 0.017639346 -0.014709589
0000f0 52 da ae 3b d5 83 12 3c fe ce a9 38 6d 0c 29 bc
       0.0053360844 0.008942564 8.097103e-05 -0.010317904
000100 cb 07 08 3c 36 95 49 3b 27 9e 80 3c c3 ed 61 bb
       0.008302639 0.0030759103 0.015700413 -0.0034473992
000110 26 4e c7 3a 82 35 e4 ba e2 59 66 3b 77 5e a6 3b
       0.0015205785 -0.0017410966 0.003514879 0.005077179
000120 7b 16 e5 bc fc de 8b 3b c5 8b 25 bc f5 ba 60 bb
       -0.027964821 0.004268525 -0.010104124 -0.0034291123
000130 8e 04 7c 3c 7b 9e bc 3c 64 05 92 3c a9 ad 60 bc
       0.015381945 0.023024788 0.017824836 -0.013713279
000140 d4 c1 0b bd 5f 71 2f ba b9 d4 94 bc 41 56 7e 3c
       -0.034120396 -0.0006692614 -0.01816784 0.015523494
000150 de c2 b0 3c 62 22 4b bb 3c db 1b bc c5 c7 33 3c
       0.021577295 -0.0030995836 -0.009512719 0.010972922
000160 b0 6f 38 3c e5 96 0a bc b3 8c 30 3b 82 63 bd 3a
       0.011257097 -0.008458828 0.0026939332 0.0014449211
000170 9f bb ae 3c 80 a2 86 bc ee 3b af 3c f1 4e c1 bb
       0.0213297 -0.016434908 0.021390881 -0.005899303
000180 c5 48 2f bc 87 97 df 3b c0 1d ec 3a 37 ca 88 bc
       -0.010698502 0.0068234834 0.0018014237 -0.016697986
000190 38 e9 e8 3c ec 3a 5f bb fc a4 b8 bc ef 6e 56 3c
       0.02843152 -0.003406222 -0.022539608 0.013087972
0001a0 b2 33 43 3b 02 74 70 bc 7a a7 77 3c fc 61 c8 3c
       0.0029785451 -0.014676096 0.015115613 0.024460785
0001b0 fb 9e b5 3b 7e 5a 08 bc 8d 3d 6c ba 98 78 8f bb
       0.0055426336 -0.008322356 -0.00090118573 -0.0043783896
0001c0 98 08 13 bc e4 4d 5d 3c 7f 39 83 3b 28 1b 7b 3a
       -0.008974217 0.01350734 0.004004657 0.0009578937
0001d0 93 6d 94 3c 2b 88 99 bc 17 d8 ce bc cb 9c 2f bc
       0.018118655 -0.018741688 -0.025249524 -0.010718535
0001e0 52 b0 71 bd 57 db d4 bc c3 92 41 3b c3 c1 73 bc
       -0.059006043 -0.025983496 0.002953694 -0.014877739
0001f0 cb 1c 73 3c 07 a7 9b 39 32 53 f3 3a a5 56 0b bc
       0.014838408 0.0002968835 0.0018564223 -0.008504544
000200 a5 a2 34 bb 91 16 54 bd ef f5 ff bc 52 d3 0c 3c
       -0.0027562764 -0.051779334 -0.0312452 0.008595305
000210 c6 ea 74 3c 19 66 5e bb ca 64 fa bc af 58 8b 3a
       0.0149485525 -0.0033935367 -0.030565638 0.0010631288
000220 12 18 2e bc 6a a7 9a 3a c9 b7 ba bb a2 68 9d bc
       -0.010625856 0.0011799161 -0.0056981784 -0.019214932
000230 d2 ca ce 3b 80 c0 25 bc 86 38 23 bd 86 65 51 3c
       0.006310799 -0.010116696 -0.039848827 0.012780553
000240 09 e5 39 bc 18 37 dd 3b 2e 0f 6f bc 51 38 86 3c
       -0.01134611 0.0067509525 -0.014591021 0.016384276
000250 ac 37 dc 3b a4 6e 09 b8 07 5a f9 b9 87 93 ac 3c
       0.006720504 -3.2766387e-05 -0.00047560057 0.02106644
000260 28 17 0d 3a 72 11 7e bc a8 bf f8 bc e0 33 40 bd
       0.00053821737 -0.015507089 -0.030364826 -0.04692447
000270 2b 98 ab 3c 47 63 33 bc 36 c0 18 bc 6e 63 82 bb
       0.020946583 -0.0109489625 -0.00932317 -0.003979138
000280 3a 30 22 bb 57 1b 86 3c d1 16 85 bb 0d ec 5b bb
       -0.0024747984 0.016370459 -0.004061558 -0.0033557445
000290 1a ee f4 bb e5 d5 3c bc 73 e7 1b 3c d0 d2 3c bb
       -0.007474673 -0.011525606 0.009515631 -0.0028812177
0002a0 56 ab 0c 3c b1 a0 63 3c 79 2a 5c 3b 8c 24 ba bb
       0.008585772 0.013893292 0.0033594652 -0.0056806263
0002b0 dd 5d 70 3c 56 86 64 3b 12 e3 9f 3c fc a2 38 3c
       0.014670816 0.003487011 0.019517455 0.011269327
0002c0 f2 b2 f3 3b 22 f2 ca 3c f0 e3 8a 3c b8 1e 3b 3d
       0.0074371034 0.024773661 0.016954392 0.045683593
0002d0 55 02 8a 3b 54 71 57 bc 22 12 3c 3b 93 47 a4 3b
       0.004211704 -0.013149578 0.0028697331 0.005013415
0002e0 e0 26 6f bb fe 8b 97 3c 9f 06 ed 3c a0 77 48 3b
       -0.0036491677 0.01849937 0.028933821 0.003058888
0002f0 1c e3 e5 bb 08 35 62 bc ac 3f 94 3b 22 1b d6 bc
       -0.007015599 -0.013806589 0.004524192 -0.026135985
000300 19 df 2e 3c 44 a3 b6 bc 9f 6a 22 3b fc 97 11 3d
       0.010673308 -0.022294648 0.002478279 0.035545334
000310 eb c7 8c 3c 67 e9 35 bc 82 6b a3 bc 04 16 c4 bb
       0.017185172 -0.011103011 -0.019948725 -0.00598407
000320 2a ae a4 bc ee db 5b bc 26 78 29 bc 34 26 29 bb
       -0.02010258 -0.013419135 -0.010343587 -0.0025810124
000330 0c 93 03 bd af 49 16 bc c3 89 1f 3c de d6 cb ba
       -0.032122657 -0.009172841 0.009737435 -0.0015551706
000340 83 fe 21 bc 29 47 e1 bc 88 35 49 bb 13 f6 cc 3c
       -0.0098873405 -0.027499752 -0.0030702073 0.025019681
000350 b5 2e ac 3c 98 e0 e0 b9 28 14 ac 3c 90 cc 20 bc
       0.021018365 -0.00042891945 0.021005705 -0.0098143965
000360 5d 20 92 3c 66 d9 39 39 c0 69 ac bb cc 24 26 bb
       0.017837698 0.00017723962 -0.00526163 -0.0025351522
000370 84 08 a2 bc 3b e1 4c bc 7e 21 3d 3c e7 4f 3f 3c
       -0.019779451 -0.012504871 0.01154363 0.011676765
000380 b6 41 e6 bc 1c ff b7 bc da f8 be bb 32 b4 23 3b
       -0.028107505 -0.022460513 -0.0058280053 0.002497923
000390 04 4d 0d bd 6f ee 09 bd f7 31 83 bc 45 7b 05 bd
       -0.034497276 -0.033674654 -0.016015036 -0.032588262
0003a0 0f 0b 63 bb 84 35 65 ba e6 e8 b8 bb 3e ad 8d bb
       -0.0034644043 -0.0008743631 -0.005642998 -0.0043236306
0003b0 0a 99 39 3c 08 75 52 3c fc 76 40 bc 0d 5d 12 3c
       0.011327991 0.012845285 -0.011747118 0.008933318
0003c0 98 66 b6 3b a4 30 ca 3c e8 4a a7 3c b7 f9 9c 3c
       0.0055664293 0.024681397 0.02042146 0.019162042
0003d0 6f fe c8 3c 3c e9 51 3b 5b 3a 03 bb f5 7f 05 bc
       0.024535386 0.0032029888 -0.0020023796 -0.008148183
0003e0 37 f7 86 3c 2b 51 06 bc 94 26 69 3b 25 c5 28 3b
       0.016475303 -0.008198063 0.0035575973 0.0025752273
0003f0 54 3e 8e 3c 37 8a a0 ba 42 f5 09 3c 27 c3 46 bc
       0.017363705 -0.0012248222 0.00842029 -0.012131489

fully_connected_layer2.weight f4 [6, 8192]
000000 01 69 a3 3c b6 df 7a ba dc c0 7c bc 9c b0 d3 bb
       0.01994753 -0.00095700787 -0.015426841 -0.0064602625
000010 d6 bc 21 3c 0f a7 83 bc 7c 85 a7 bc d8 d7 a7 bc
       0.009871682 -0.01607087 -0.020449392 -0.020488665
000020 d4 31 bc bc bd bf 6e 3c 39 a8 80 ba 11 31 c5 bc
       -0.022972979 0.014572081 -0.0009815759 -0.024071248
000030 a0 b5 f9 3b 3b df 7b bc fe b8 69 3c f6 3f f3 3c
       0.0076205283 -0.0153730465 0.014265297 0.029693585
000040 c6 26 40 3c 50 34 92 3c 8a 4f 21 3c 07 c2 81 3b
       0.011727994 0.01784721 0.009845624 0.0039598974
000050 c3 0c c8 3c e9 c2 ee bc cd a7 22 bc 44 6b ef 3a
       0.024420148 -0.029145675 -0.009927702 0.001826622
000060 75 87 03 3c 99 5d 68 bb f5 46 89 bb 18 54 99 bc
       0.008027901 -0.003545618 -0.004189367 -0.018716857
000070 f2 3a 74 3c 21 bd 12 3c db cb 46 3c 95 f6 95 bb
       0.014906632 0.008956225 0.012133564 -0.004576514
000080 17 80 c5 3c 84 8f 0b 3d 34 84 b5 3c df 00 a0 3c
       0.02410893 0.034072414 0.022157766 0.019531665
000090 c0 3e d3 3c 39 69 14 bc 2f 11 8a 3a 1b 60 5f 3c
       0.025786757 -0.00905829 0.0010533686 0.013633753
0000a0 ae 73 31 3b 0e 42 2f 3d 8c a1 14 3d 26 e9 8b bc
       0.0027077007 0.042787604 0.036286876 -0.017078947
0000b0 5e 4a 34 3d d5 20 b7 3b 2f fe 3e 3c 4f b3 08 3d
       0.044016235 0.0055886307 0.011657282 0.033374127
0000c0 4f 83 c4 3c 6c a1 b5 ba 87 b0 09 bc 82 d7 2d 3c
       0.023988394 -0.0013857312 -0.008403904 0.010610463
0000d0 da 1d b3 3c 06 66 28 3c 2e 10 a0 bb 88 a3 a5 bc
       0.02186482 0.0102782305 -0.0048847413 -0.02021958
0000e0 b8 7d 87 bc 13 99 d8 3c 97 18 5e 3c 33 db 99 bb
       -0.01653944 0.026440179 0.013555667 -0.00469532
0000f0 e9 bd 9f ba 4d 53 90 bc b9 8e a4 3c b4 b3 35 3c
       -0.0012187335 -0.017617846 0.020087587 0.011090208
000100 38 dd 52 bb d4 60 e7 3b 7f 64 2c bc 07 1b b0 3c
       -0.0032175314 0.0070611034 -0.010522007 0.021497263
000110 92 5e cb 3a 0f dd 2a 3c f2 a1 20 bc 71 50 44 bc
       0.0015515855 0.010428681 -0.009804236 -0.011982069
000120 88 77 a8 bb ae 6b 01 38 26 e6 b1 bb c4 24 15 3b
       -0.0051412024 3.085628e-05 -0.005429047 0.002275751
000130 99 a1 84 3c 81 98 32 bc 36 76 0b bc 12 c1 0c 3c
       0.016190337 -0.010900618 -0.00851207 0.008590953
000140 37 67 ff bb 89 0c 8d 3b 01 6c 43 3c 4b 05 5f 3c
       -0.0077942866 0.004304473 0.011927606 0.013612102
000150 87 01 82 bc aa b1 d3 3a d6 fc c3 bb 7b 57 ab 3c
       -0.015869869 0.001615097 -0.005981068 0.020915737
000160 e4 e7 d3 3c 20 ab f6 3c df e2 08 3c 91 03 64 bc
       0.02586741 0.030110896 0.0083548715 -0.013916866
000170 a3 78 61 bc f6 90 ff 3a fd b4 20 ba 68 02 b1 3c
       -0.013761672 0.0019498158 -0.0006130485 0.021607593
000180 6d 20 4b bc 9b 8c 9c 3c e2 15 7b bb 83 8a b4 3c
       -0.012397868 0.019110015 -0.0038312604 0.022038704
000190 c8 25 b1 3c 25 6a 09 3d 4b 0f a3 3c 1b 21 37 3c
       0.02162446 0.033548493 0.019904753 0.011177327
0001a0 c6 c8 ed 3c fb 34 6e ba 6b d9 3e 3c 88 6c d5 bb
       0.0290264 -0.0009086874 0.011648516 -0.006513182
0001b0 4e 9a 0c bc cf 12 82 3b 88 dd 33 39 46 98 02 3c
       -0.008581711 0.0039695273 0.00017153297 0.007970875
0001c0 56 7a 61 bb ec 51 50 bc 6a d7 04 bc c3 f3 0e 3c
       -0.0034405193 -0.012714844 -0.008107999 0.0087251095
0001d0 ec a0 74 3c e7 b0 25 3c 0f 51 f7 3c 6c f4 26 3c
       0.014930945 0.010112978 0.030190019 0.010190111
0001e0 4c e4 f6 3c 65 50 22 3c 70 08 ab ba 96 ff bb 3b
       0.030138157 0.009906863 -0.0013048779 0.0057372553
0001f0 f8 24 25 bc 39 3e 93 bc 98 3e 4e 3b fc 14 4d 3c
       -0.010079615 -0.017974006 0.0031470414 0.01251721
000200 31 82 a4 bb 03 7c 0d 3d 0b d1 49 3c 83 1f 04 bc
       -0.005020403 0.034542095 0.012317906 -0.008064154
000210 81 55 f7 bb b7 3d b6 bb 50 25 8f bc b8 73 94 bb
       -0.0075480347 -0.005561556 -0.017473847 -0.0045303963
000220 34 1b 91 bc e3 1d 4d bc 0b 06 aa 3a ed f3 25 bc
       -0.017713167 -0.012519333 0.0012971772 -0.010128957
000230 87 a4 a0 3a 30 90 ae 3c e6 de c0 bc 63 a1 36 3c
       0.0012256064 0.021308988 -0.023543786 0.011146876
000240 ab f7 58 bc af a8 c2 bb a9 85 55 bc 12 11 bd 3b
       -0.013242642 -0.005940519 -0.013032355 0.005769857
000250 1f 63 81 3c 89 74 0d 3d 10 c5 41 bc a4 8a 9a 3c
       0.015794335 0.034534965 -0.0118267685 0.018864937
000260 a8 1d 53 bc 17 2f 1d bb 17 8c 0e 3d ec df 8f bb
       -0.012885489 -0.0023984367 0.03480157 -0.0043907072
000270 96 31 83 3c df 34 c3 3c 5e 98 07 bb 63 60 3c 3d
       0.016014855 0.023828922 -0.0020690183 0.04599036
000280 2d 42 03 bb ed e1 cc 3b a9 56 1a 3c 25 6e 5a bb
       -0.0020028458 0.0062525184 0.009420075 -0.0033329811
000290 a4 fc 2e 3c 7e 0b f0 3a ab 5a bc 3c 00 ce 34 3c
       0.010680351 0.0018313972 0.022992453 0.011035442
0002a0 09 5a 2e 3c c7 2e 5b 3b 70 f8 12 bb dd cf 1b bd
       0.010641583 0.003344463 -0.0022425912 -0.03804003
0002b0 97 2a 3d bc fa 8c 44 3c 4f a4 db 3c d1 1c 8c 3c
       -0.011545799 0.011996502 0.026811747 0.017103584
0002c0 17 ef 96 bc 9f b2 15 3a a1 ae 2f 3c 7f 45 02 3c
       -0.018424554 0.00057105155 0.010722787 0.0079511395
0002d0 63 15 f0 ba 53 d2 94 3c 9e 14 a9 3c ee f1 c0 3b
       -0.0018316921 0.018166697 0.020639714 0.0058882153
0002e0 c7 21 9f bc 44 03 88 bc 3d 1b 84 3c 8e 69 9a bb
       -0.019425286 -0.01660312 0.01612627 -0.00471229
0002f0 78 f1 a7 3b af 69 18 bb 18 90 68 3c e0 4e 9a 3c
       0.005125221 -0.0023256352 0.014194511 0.018836439
000300 3d 5f 21 bc cb 7b 59 bc ec 80 9b 3b dc 1a 3c 3b
       -0.009849367 -0.013274143 0.0047455933 0.0028702533
000310 bd 41 89 3c 75 11 82 3c 1b 07 21 3d 47 c2 16 bc
       0.01675498 0.015877465 0.039313417 -0.009201593
000320 46 0a 3f 3c 51 86 ab 3b 66 66 0c 38 d2 ae 19 3d
       0.011660164 0.0052345176 3.3473967e-05 0.037520237
000330 ef bb 05 3d 12 57 c8 bc 71 41 07 3c 2e c4 a2 bb
       0.03264993 -0.02445558 0.008255349 -0.004967234
000340 82 b3 cd bb 67 18 47 bc ba 91 ec 3b 60 78 a8 bb
       -0.0062775025 -0.012151814 0.0072195204 -0.005141303
000350 a1 78 75 3c 4a fb 1c 3d a4 d4 05 3b 70 8e a9 bc
       0.014982373 0.038325585 0.0020420933 -0.020697802
000360 67 33 8e bc 92 9e 6b bb 76 35 6e 3c e1 f7 a8 bb
       -0.017358495 -0.003595267 0.014539113 -0.0051565026
000370 c1 af 48 3c 13 08 9d bb e4 3c bc 3c a7 a2 8c 3c
       0.012248934 -0.0047922223 0.022978254 0.017167402
000380 33 4c 96 3c c1 01 e2 bb 9b c9 b9 3c 6e af c5 3b
       0.018346881 -0.0068971817 0.02267914 0.0060328757
000390 5c d1 5c 3c fd 82 44 3d f2 9d 99 bc 0d 5c 9d bb
       0.01347765 0.047976483 -0.018752072 -0.004802233
0003a0 68 fe d6 bb 09 37 fe bb d3 f1 a8 3c f5 de ca bb
       -0.0065610893 -0.0077580255 0.020623123 -0.0061911293
0003b0 9f 0b 57 bc 2a f8 39 bb 3d ba cf 3b 62 df 37 3b
       -0.013125329 -0.0028376677 0.00633934 0.002805673
0003c0 dc 7b 6b 3c 93 48 52 3c b3 3e a4 3c 76 41 1b 3a
       0.014372792 0.012834686 0.020049429 0.0005922535
0003d0 b4 b5 17 3c 8f 77 10 3d d1 76 87 3a cd 8e 36 bc
       0.00925963 0.03527027 0.0010335093 -0.011142445
0003e0 54 3c 17 3b 11 c9 c1 bc f3 64 04 3d f9 36 8c bb
       0.002307673 -0.023655446 0.032322835 -0.004279014
0003f0 9a fd 2f bc 7b 78 b7 bb fa 61 d1 3b 4c d9 d1 bb
       -0.010741616 -0.005599079 0.0063898535 -0.0064040776

fully_connected_layer2.bias f4 [6]
000000 29 b4 a4 3b 25 98 b2 3b 84 25 62 ba d6 19 14 bc
       0.0050263596 0.005450266 -0.0008626806 -0.009039363
000010 c9 91 8b bb ef 60 d1 b9
       -0.0042593223 -0.00039935808
